data(5).pth (torch, 5591 bytes, 6 tensors)

l1.weight f4 [8, 65]
00000000: 333d 3dbe 5619 a3bd 3a32 76bf 4009 2c3f
00000010: 2d44 0d3f bf42 5c3d 66a3 81be bdce 3f3f
00000020: fa44 0cbe 464d 0c3f 5903 27bd 2bd9 673f
00000030: 3046 863e 9340 953c 7e25 c33e 0311 333f
00000040: a9a0 153f add2 953e 3d08 f03e 0436 7f3a
00000050: 0cd8 9e3e 9266 38be 0b10 833e 2aaa 433e
00000060: 30c7 053f 9092 a3be c970 263f 16d0 1a3f
00000070: 5b19 883f ec82 003f 8347 0d3f 1c55 a53e
00000080: 2512 0dbd 17d9 063e e69e fa3e de01 123d
00000090: 8230 f13e b015 253f 181a 8abd 3919 63bc
000000a0: 79f1 94bc 5b17 263f 0bb1 b43e c210 143f
000000b0: 9dce ac3e 206b e13e 8575 1a3f 25ef d43e
000000c0: 179c a63f a7b0 003f 402a 253f 424f fd3e
000000d0: b9e9 4b3e da33 a93d 0f3d 56bf 9f73 aabe
000000e0: 88bf 4d3e f5c5 323e 4cf7 92bc bf98 0b3f
000000f0: 87ab 2e3f 9008 8b3e 3d30 143e 5a17 b1bd
00000100: dfd5 2f39 52ac c43d 1361 073e 9882 2b3f
00000110: 63d4 9bbe 4e75 dbbe d689 033d 906c 733e
00000120: 01d9 f13c 7272 363e ae62 01be 0ab9 a73e
00000130: 7b71 bdbe 3376 053f d4db 1c3e 6f65 8e3e
00000140: 2f88 1b3e cbe6 97be c87a e53d 414a 5dbe
00000150: 0114 2b3f 826f f03e 0bf5 003e c030 d03e
00000160: 4e1f b63e 57cd 113f 9430 323c e29c 013f
00000170: e37f 033f a828 4c3f 2c35 953e 577e 623c
00000180: 33ae 253d baeb af3e 036c 503f 7d77 87bb
00000190: fd61 953e 637f c6bd f771 04bf f75b 3f3e
000001a0: 61d9 2b3e babc 713e 00a9 d3be 1f20 113f
000001b0: 4977 4abe 2938 533d 08cb 70bd 7f95 afbe
000001c0: 4ce1 1dbe ca25 37be 5eac bebe 4236 0abf
000001d0: 1e28 7abe 017e 0f3f b4b0 4b3e 262a 3abe
000001e0: 47cf 2f3e 38bb bd3e 5dba aa3d a123 f73e
000001f0: f103 6dbe e9e8 dd3e cfb9 ae3e d2de eb3e
00000200: 11a2 e73e 7a81 9f3e 20e0 4a3f fa8f 0b3f
00000210: 1897 5ebf be76 70be 3808 3cbe cb98 b73e
00000220: e034 1d3e 3885 3d3e 43e0 69bf cb3e 0abe
00000230: 77ac 713e 1f91 d7be 1f13 0f3f d441 2d3e
00000240: 2347 213e 53f3 b1bd d3fd 5cbe fd42 023e
00000250: fbcd 73be 3bda c63e 242a 0c3f eae4 65bf
00000260: b113 283e 1f19 193e ca55 303f ba83 1c3f
00000270: af8e 473f 1ce3 613f 4558 463f d6f6 953d
00000280: bc28 59be 575a cabd ce4f b13d c8ff 4b3f
00000290: d3a8 76bd fa67 5e3d 3502 0abe 1236 3fbf
000002a0: 7ea5 2f3e f6f1 463e ff9f e03e a7de b4be
000002b0: 7a05 1b3e d187 8abe 1629 8abd 23e7 65be
000002c0: b64a 6ebe d1d0 07be 90c4 5fbe 2de4 a0be
000002d0: 0746 1fbf cb83 d8be b888 7a3e 5078 e93d
000002e0: fb55 973f 594f 0b3f 4105 a9bd 6ff1 c93e
000002f0: e5c4 653e 32f8 5fbe 8682 283e 171f 053e
00000300: c4fb c43d ce7a 1f3e 821e e93e 1998 cb3e
00000310: 40fc cd3e 6ed6 873f 0293 493e 5467 14bf
00000320: 5e21 f1be 63a4 b33e a312 22bf bc2a 17be
00000330: e554 183f 7668 523e 663f 263e 55c6 13be
00000340: 4676 823e d44e f83e fc1e ee3e d4d3 99be
00000350: cd84 143f 0fb1 2a3e 9508 523f 9f4a 5bbe
00000360: 18f0 29be 8474 0d3f 8813 933e 5960 f4be
00000370: 524b 0c3e 8bad fcbe 9a4f f4be f522 283f
00000380: 126a 063f 1b8a 613e d867 ae3e 6da9 ca3e
00000390: ad2c 523f e7a2 e93e c4eb 8b3e 70d6 9d3e
000003a0: 876e b2be fcb4 193e 2955 7e3e 2e44 dd3e
000003b0: c14a 243e 61ce 473f 0a87 d63e e506 793e
000003c0: 51e8 ac3e e4e9 2dbf b7b5 9f3c 2c0c b53e
000003d0: 08b6 08bf 2542 0cbf d5ea 4ebf ffcc 273f
000003e0: 114b 4d3e 71f0 f33e b104 183e 6bcb 333f
000003f0: b1fb e1be ce86 da3e 380e 03bf 250c 433f
-0.18480377 -0.07963817 -0.9617039 0.67201614 0.55182153 0.05377459 -0.25319976 0.7492483
-0.13698187 0.5480541 -0.040774677 0.9056575 0.26225424 0.018219268 0.38114542 0.6994783
0.5844827 0.29262295 0.46881285 0.0009735527 0.31024206 -0.18007877 0.25598177 0.19107881
0.5225706 -0.31947756 0.65015846 0.60473764 1.0632738 0.5019977 0.55187243 0.32291496
-0.034441132 0.1316875 0.48949355 0.035646312 0.4710732 0.6448622 -0.06743258 -0.013860994
-0.01818155 0.6487939 0.35291323 0.5783807 0.33751383 0.44027042 0.6033557 0.41588703
1.3016385 0.5026955 0.64517593 0.4947453 0.19913377 0.08261843 -0.8368692 -0.33291337
0.20092595 0.17458327 -0.017940186 0.5452995 0.6823048 0.2715497 0.14471526 -0.08647032
0.00016768974 0.0960318 0.13220625 0.66996145 -0.30435476 -0.42862934 0.032113872 0.23771882
0.02952242 0.17817095 -0.126353 0.3275836 -0.3700064 0.5213348 0.15318233 0.27811763
0.15188669 -0.2966827 0.11205059 -0.21610357 0.668274 0.46960074 0.12593476 0.40662193
0.3557076 0.5695395 0.01087584 0.5063001 0.51367015 0.79749537 0.2914213 0.013824067
0.040449332 0.34359533 0.8141481 -0.004134117 0.29176322 -0.09692266 -0.51736397 0.18687426
0.16782142 0.2360715 -0.41339874 0.5668964 -0.19772066 0.05156723 -0.058787376 -0.34293744
-0.15417975 -0.17885509 -0.3724088 -0.5398904 -0.24429366 0.5605164 0.19891626 -0.18180141
0.17168914 0.370569 0.08336327 0.4826937 -0.23146035 0.4334176 0.34126136 0.46068436
0.45240834 0.3115347 0.7924824 0.54516566 -0.869493 -0.23482797 -0.1836251 0.3585876
0.15352201 0.1850785 -0.9135782 -0.13500516 0.23600946 -0.42102906 0.5588855 0.16919643
0.15749793 -0.086889885 -0.21581201 0.12720867 -0.23809044 0.38838372 0.547518 -0.8980242
0.16413762 0.14950989 0.68880904 0.611385 0.7795209 0.88237166 0.7747844 0.07322471
-0.21206945 -0.09880512 0.086578 0.79687166 -0.060219597 0.05429838 -0.13477404 -0.7469188
0.17152974 0.19428238 0.43872067 -0.3532612 0.15138808 -0.27056745 -0.06746118 -0.22451453
-0.23270687 -0.13263251 -0.21852326 -0.31424084 -0.6221623 -0.4228805 0.24466217 0.11399901
1.1823114 0.5441795 -0.08252955 0.39442012 0.2243839 -0.21872023 0.1645604 0.13000141
0.09618333 0.1557419 0.45531088 0.3976448 0.40231514 1.0612314 0.19684985 -0.57970166
-0.4709577 0.35086355 -0.6330969 -0.14762396 0.5950454 0.20547661 0.16235122 -0.14431126
0.2548086 0.4849764 0.46508014 -0.30044425 0.5801514 0.16669105 0.82044345 -0.21415184
-0.16595495 0.55255914 0.2872584 -0.47729757 0.13700607 -0.49351153 -0.4771698 0.6567834
0.525056 0.2202534 0.34063601 0.39582387 0.8209942 0.45632097 0.27328312 0.30827665
-0.3484995 0.15010446 0.24837174 0.4321608 0.16044141 0.78049284 0.41899902 0.24319036
0.33770993 -0.67935014 0.019495828 0.3536085 -0.5340276 -0.5478843 -0.80827075 0.65547174
0.20048167 0.4764438 0.1484554 0.70232266 -0.44137338 0.42680973 -0.5119357 0.76190406

l1.bias f4 [8]
00000000: 3622 563f 2ce6 3e3f a5e3 693f 4104 323f
00000010: 6f17 193f 2f7b 903f 906d 3b3f bef2 973f
0.8364595 0.74569964 0.91362983 0.6953774 0.5980138 1.1287593 0.73214054 1.1870954

l2.weight f4 [8, 8]
00000000: 1fe9 233f 1875 34be ee38 02bf 10f6 c8bf
00000010: 3562 7a3f 2e94 a83f aeb2 873f 43dc 9a3f
00000020: c394 04be a24e 88be e472 31be 802f 5ebb
00000030: da3e acbe 2300 acbe f810 723d 4a66 533e
00000040: 857b 8e3f 375f 48bd 1cce 31be d911 923f
00000050: 1891 a23e 817e 51bf c83d d33e 42b2 fbbe
00000060: 5809 72be c76d 863f 0b40 e8be c514 b83f
00000070: 0b44 9f3f 68b6 62bf 5492 9abf 5a43 4f3f
00000080: 6509 6fbe e59b 40be 937e 963d 00df 623e
00000090: d006 f5bd c0ad 953c 284c 8abe 1d59 5dbc
000000a0: a7c9 d03f e1b7 1f3f f55c 363f 0206 c6bb
000000b0: de35 c4bf af0b 7fbf 7593 783f 6e4a 373f
000000c0: c1a2 5ebf 734f 753f 04aa 0940 f9a2 673f
000000d0: c935 c2be aeab 643f 4cdc 713f 4723 583f
000000e0: 2c6f ddbd 40c2 983d 69e3 11bd de3f 18be
000000f0: 1cec 2abe d299 1f3b d9de b83d 7694 a73d
0.6402759 -0.17622793 -0.5086812 -1.5700092 0.978061 1.3170221 1.0601404 1.2098469
-0.12947373 -0.26622492 -0.17328984 -0.0033902824 -0.33641702 -0.33593854 0.059098214 0.20644489
1.1131445 -0.04891893 -0.1736378 1.1411697 0.31751323 -0.81833655 0.41258073 -0.49159437
-0.23636377 1.0502251 -0.4536136 1.4381338 1.244264 -0.8855958 -1.2075906 0.80962145
-0.23343427 -0.18809469 0.07348361 0.2215538 -0.1196419 0.018271327 -0.27011228 -0.013510016
1.631154 0.6238995 0.7123559 -0.0060431967 -1.5328939 -0.996272 0.971 0.71597946
-0.8696709 0.95824355 2.151002 0.9048305 -0.3793166 0.8932446 0.9447677 0.8442883
-0.1081222 0.07458925 -0.035617266 -0.14868113 -0.16691631 0.0024353159 0.0902688 0.081826136

l2.bias f4 [8]
00000000: 2e0a 093f e627 02be 26b9 143d 9a90 353f
00000010: 830f 63be 71c0 673c 7b19 2d3f 4461 96be
0.5353116 -0.12710533 0.036309384 0.7092377 -0.22173886 0.014145003 0.67617005 -0.29371083

l3.weight f4 [8, 8]
00000000: fbc3 593f d678 553e 42df bbbe 09df 0bbf
00000010: 6fb6 9a3e ffda a9bf bc09 c8bf f555 b6be
00000020: ffd8 a5bf 1097 96be fe2e 6d3f 97e0 adbe
00000030: 88c2 0f3c 2fec 323f 457d afbf a6f2 923e
00000040: 8c23 eb3d 6c92 debd 6cf3 f03d 5ca4 07bf
00000050: e63e 753e 566d a03e b2ef 45bf 25be 82bd
00000060: c336 e0bf ba2f acbe ce96 6ebe ab7e 6a3f
00000070: ee29 ca3c f8a7 4ebf d78c 6b3e 692f 8f3e
00000080: 66dc 403f 6c7f 91be 2f1e 00c0 af40 0a3f
00000090: 7c77 1a3e 5d25 d9bf 3f53 9d3c 6202 20be
000000a0: cc82 adbd 1fda 65be ab58 dfbf e345 5dbf
000000b0: 7ad1 87bc e857 e93e adf1 c63e dbe5 d93c
000000c0: 7294 a1bf 4cd3 a83d 8bb1 c4bd 24f3 10bd
000000d0: 0815 9b3e d7ab 2a3f 322f c73d 6484 8bbe
000000e0: 6720 b0bd 20fa d13d faea 9fbf f118 91bf
000000f0: 6bd3 0abe c88d fabf fadf 7e3f f995 c33d
0.8506467 0.20846877 -0.3669377 -0.546372 0.3021731 -1.3269957 -1.5627971 -0.35612455
-1.2956847 -0.29412127 0.9264983 -0.3396041 0.008774407 0.6989164 -1.3710104 0.2870075
0.114813894 -0.108677715 0.11765179 -0.5298517 0.23949775 0.31333417 -0.7731887 -0.063839234
-1.7516712 -0.33630162 -0.23299715 0.9159953 0.024678197 -0.8072505 0.23002945 0.2796586
0.753363 -0.28417528 -2.0018423 0.5400495 0.15084642 -1.6964527 0.019204734 -0.15625909
-0.08472213 -0.22446488 -1.7448934 -0.86434764 -0.016579378 0.4557488 0.3885626 0.026598861
-1.2623427 0.08243427 -0.09604176 -0.035388127 0.30289483 0.66668457 0.09725799 -0.27249444
-0.0859993 0.10252786 -1.2493584 -1.1335737 -0.13557212 -1.9574518 0.9956051 0.095500894

l3.bias f4 [8]
00000000: 6c12 9c3d ce7d 143f f72f 073e ad42 c7be
00000010: f903 ce3e be71 f4bd 5145 51be a182 743e
0.07620701 0.5800446 0.13201891 -0.38918057 0.40237406 -0.11935757 -0.20436598 0.23877956
